house_model.pth (torch, 15237 bytes, 7 tensors)

network.0.weight f4 [64, 3]
000000 75 b5 03 3f 91 7c bf 3e 4d 31 3e be 54 81 2d 3f
       0.51448756 0.37399724 -0.18573494 0.67775464
000010 c6 cd f9 bd 55 cc 2e 3d 99 e4 ad be a4 8e 8e 3e
       -0.12197451 0.042675335 -0.3396347 0.278432
000020 df 55 ea 3e 80 00 c9 be 67 de f6 3e 22 f6 e9 3d
       0.4576864 -0.39258194 0.48216555 0.11423899
000030 f2 a7 00 3f 0f 49 76 bc 27 b3 3b 3e 7a f0 43 be
       0.50256264 -0.015032067 0.1833006 -0.19134703
000040 a8 97 b4 3e 87 43 29 3d 70 2c a2 be 0e ec 5b 3e
       0.35271955 0.041324165 -0.31674528 0.21476766
000050 e3 d9 9d be aa f6 25 3d 45 fc 89 be ef 3d 99 3e
       -0.30830297 0.04051844 -0.2695028 0.29930064
000060 28 57 e9 be b5 46 88 be 1c f1 26 be f7 bc b1 be
       -0.45574307 -0.26616445 -0.16302913 -0.3471448
000070 21 33 5f 3d 0a fb 11 bf d8 b3 30 3f f1 30 ed be
       0.05449212 -0.5702368 0.6902442 -0.46326402
000080 34 3a df 3e d3 e5 32 3e fc d8 8d be f3 46 90 3e
       0.43599093 0.17470483 -0.27704608 0.2817913
000090 0d 31 4c 3e ab 76 d4 3e fe 64 15 3d eb 17 5c be
       0.19940586 0.41496786 0.036473267 -0.21493499
0000a0 5e 6f 95 3e fb 0a ea bc 28 48 b0 3e e7 10 f1 3e
       0.2918653 -0.028569689 0.3443005 0.47083208
0000b0 1d 55 9a 3e c0 99 84 be b9 c6 95 3e ef e5 db 3d
       0.3014306 -0.25898552 0.29253176 0.10737216
0000c0 58 e0 b4 3e bd c5 42 bf 1b 33 fa be 8b a5 44 be
       0.3532741 -0.76082975 -0.48867115 -0.19203775
0000d0 29 42 df be f9 16 d3 3e f3 56 91 3e f5 36 53 3e
       -0.43605164 0.41228464 0.2838665 0.20626433
0000e0 7e 86 25 3e 3c f2 10 3e 41 50 d4 3e 7f 35 c9 be
       0.16164586 0.14154905 0.4146748 -0.39298627
0000f0 9d 73 e3 3c ff c8 f3 be a8 6a 0a 3e 00 e2 1f be
       0.02776509 -0.47614285 0.13517249 -0.15613556
000100 c7 2f 3d 3e e6 00 ae bd 98 3e f8 3e 4a 3e b6 be
       0.18475257 -0.08496265 0.48485255 -0.35594398
000110 4d 47 b8 be c1 c0 b0 be e0 c6 ad 3e 3c ac fd 3c
       -0.35991898 -0.3452206 0.33940792 0.030965917
000120 46 cc 13 3f 67 7c e3 be de a9 14 bf 48 f4 dc be
       0.5773357 -0.4443085 -0.58071697 -0.43155122
000130 4c be 94 be a0 49 98 3e c0 f0 ab 3e ab 87 ee 3e
       -0.29051435 0.2974367 0.33582115 0.4658788
000140 07 cf 8b be 5d 93 fb be c5 db a6 3e ee 41 f2 bd
       -0.27306387 -0.49135867 0.32589546 -0.11828981
000150 80 b2 f7 3e ef c8 b4 bd f7 c7 a2 3e eb e8 ba be
       0.48378372 -0.088273875 0.31793186 -0.36505827
000160 2b 3e 64 be 45 2e 79 3e 90 64 83 3e 9e b7 0d be
       -0.2228934 0.24334057 0.2566266 -0.13839576
000170 29 f8 ad 3e 3b a2 0d 3f b1 28 9c be dd 3f 00 be
       0.33978394 0.5532567 -0.30499795 -0.12524362
000180 26 07 42 3f 4e fe 83 3b c1 91 e4 bb 31 18 1a bf
       0.7579216 0.004028118 -0.006975383 -0.60193163
000190 08 c4 8f be 05 dc 33 3e 78 da 04 3e f1 78 86 be
       -0.28079247 0.175644 0.12973964 -0.26264146
0001a0 56 38 e2 3d d2 eb c9 be f4 c9 fa be 18 c7 a2 be
       0.110459015 -0.3943773 -0.48982203 -0.3179252
0001b0 40 a5 e4 be a6 87 90 be 83 c7 25 3f a0 f8 3a 3d
       -0.44657326 -0.28228492 0.64757556 0.045647264
0001c0 46 0d 33 3e 8e 9d 26 bf b1 75 9f be c1 09 10 be
       0.17485532 -0.6508416 -0.3114448 -0.14066221
0001d0 ed 89 47 3e c8 0d 02 bf 2a bc 7e be eb f7 b0 be
       0.19486208 -0.5080228 -0.24876466 -0.34564146
0001e0 e8 86 60 3e 96 b9 7b bd ed 8f 87 3c 42 4f c8 be
       0.21926463 -0.061456285 0.016548121 -0.3912297
0001f0 94 e6 ca be 9d 74 ac be e9 93 25 be 7d 91 12 bf
       -0.39629042 -0.3368272 -0.16169704 -0.5725325
000200 63 36 9c 3e 0d fa 3a be 2e b4 58 3e 1e 65 87 bc
       0.30510244 -0.1825945 0.21162483 -0.016527709
000210 d0 43 ed be a0 2b da 3e ce ca 1f be fb 9f 62 be
       -0.463408 0.42611408 -0.15604708 -0.2213134
000220 21 5f f5 be 48 f0 12 bf 71 ba 9a 3e 6a 09 ec bd
       -0.4792414 -0.5739789 0.30220369 -0.11525233
000230 d2 dd 65 3e 7a df 25 bf 06 1f dc 3e c4 1e d2 be
       0.22447899 -0.64794123 0.4299242 -0.41039097
000240 aa ed 54 be 05 9b 32 bc 6d 8b 2b 3e ab 92 1f 3f
       -0.20793787 -0.010901217 0.16752405 0.6233317
000250 79 f3 09 3f a8 4b d3 be 99 5a bd 3e 6d 87 22 bd
       0.53887135 -0.4126866 0.36983183 -0.039679933
000260 2b b2 06 3d 0b 11 bc be a8 ce ee 3e ed 37 0d bf
       0.032884758 -0.36731753 0.4664204 -0.5516346
000270 56 5d cf 3e b8 68 10 3e f6 b5 17 3e 1c 5f 9c be
       0.40500897 0.14102447 0.14815506 -0.30541313
000280 f1 03 ee 3e 45 67 b5 3d 39 f6 59 3e 0a 3d e3 be
       0.46487382 0.08857588 0.21285333 -0.44382507
000290 a6 ec 75 3e 36 3c a8 3d 07 4a 9d be d9 e0 df 3e
       0.24016055 0.08214609 -0.3072054 0.43726233
0002a0 c7 26 d7 3d 16 b1 a4 be 15 d3 a1 be e6 a6 98 3d
       0.10505443 -0.32166356 -0.31606355 0.07453708
0002b0 27 ae 99 3e f8 bb 18 be f1 a9 a8 be 5b 74 4a be
       0.3001568 -0.14915454 -0.32942155 -0.19770949
0002c0 7b d6 dc be 7e f8 c1 3e aa 20 cc 3e 7e 53 08 bf
       -0.43132386 0.37884897 0.3986867 -0.532524
0002d0 73 69 8e 3e 17 6b 92 3e ee ca df 3d 26 96 69 be
       0.27814826 0.28597328 0.10927378 -0.22811183
0002e0 1a b8 bf 3d 3a fd c8 3d 62 5f d4 3e 2e c2 53 3b
       0.093612865 0.09813924 0.4147902 0.0032311785
0002f0 cf a5 b9 bc c8 fd 7c 3d cf e0 d0 bd 22 2e 30 be
       -0.022662072 0.061765462 -0.10199129 -0.17205098

network.0.bias f4 [64]
000000 3d 0b bd 3e 53 0b 15 3f ad 70 e9 bd 3a da b5 bd
       0.36922637 0.58220404 -0.11398444 -0.08879514
000010 a8 bc 84 bc 17 bc f3 bd 06 48 1f 3e 20 ea 6c 3e
       -0.01620324 -0.1190111 0.15554819 0.23136187
000020 eb 3d 06 bf 76 2d 5a be c2 7c 14 3f d2 40 83 3e
       -0.5243823 -0.21306404 0.58002865 0.2563539
000030 51 a2 b0 bb 31 84 80 be 86 47 aa be 89 27 06 bf
       -0.0053904434 -0.25100854 -0.33257693 -0.52404076
000040 90 9e d9 bd 44 16 2f 3e ce e5 ce 3e 0c 02 c3 3e
       -0.106259465 0.17098337 0.40409702 0.380875
000050 94 e5 1a bf 27 d8 a5 be 54 89 1e bc 13 3d e8 3e
       -0.6050656 -0.32391474 -0.009676296 0.45359096
000060 af 91 2d 3e 91 2c 80 bd 70 cc 9f 3e 9e 97 71 be
       0.16950105 -0.062585 0.3121066 -0.23592994
000070 3c 66 91 be 4b 06 13 3f e7 b0 47 be f4 bd 42 3d
       -0.2839831 0.5743148 -0.19501077 0.047544435
000080 84 30 b1 be e5 2b 08 3f 91 e8 1d 3f d6 76 57 3e
       -0.34607327 0.5319198 0.61682993 0.21041426
000090 ed 47 ad be 37 8b 17 bf 22 dc a2 be 75 6e dc 3e
       -0.33843938 -0.591968 -0.31808573 0.43053022
0000a0 24 b0 e7 3e 64 c0 f8 3e 03 c1 90 3e bd 87 45 bd
       0.45251572 0.48584282 0.28272256 -0.048225153
0000b0 99 0b 79 3d e1 ce e0 be cb a3 d6 be ba 33 09 bf
       0.060802076 -0.43907836 -0.4192184 -0.53594553
0000c0 7e 0d d9 3d 9d 1f 2e be 52 68 c6 3d da 13 d7 be
       0.105982766 -0.17004247 0.09687866 -0.42007333
0000d0 c7 be c3 bd a6 c3 d2 be c3 f8 a6 be e4 d0 92 3e
       -0.09557872 -0.41164893 -0.32611665 0.28674996
0000e0 04 1f 48 be 7d 16 d1 3e 0e aa 3d be 85 c6 ae be
       -0.19543082 0.4083747 -0.18521902 -0.34135833
0000f0 0e 41 22 bd 8f fa e0 be 29 46 c4 bb e0 b4 0c bf
       -0.039612822 -0.4394116 -0.005989809 -0.54963493

network.2.weight f4 [32, 64]
000000 55 a0 f8 3d 7e b4 e4 3c 26 9a 53 3c 5f be 3f bc
       0.12139956 0.027918097 0.01291517 -0.011703103
000010 02 a5 13 3e b6 5f 00 be da cd bf bd ad 2c 5c bd
       0.14418414 -0.12536511 -0.09365435 -0.053753544
000020 c8 fc 3d 3d d2 69 f0 3d c0 e9 5e 3d b3 e3 fb 3c
       0.04638365 0.117389336 0.05442214 0.030748224
000030 da ad ec bc 1b ce 80 be 16 a8 7c 3d 89 2c 3b be
       -0.028891493 -0.25157246 0.061683737 -0.18278708
000040 07 03 14 be 1d 95 4c 3d 77 08 09 3e 1d 0b a2 bb
       -0.1445428 0.049946893 0.13382135 -0.0049451725
000050 1e 4a 9e 3d ce 17 b4 3b 96 53 2e 3e b4 69 2e be
       0.077289805 0.005496002 0.17024073 -0.1703251
000060 28 2a c1 3d ef 36 dd bd 01 3e f1 3c 51 d6 00 be
       0.09431869 -0.108014934 0.029448511 -0.12581755
000070 16 fa fc ba ab 00 ea bd 80 40 db bd b4 e4 62 3e
       -0.0019300606 -0.11425909 -0.10705662 0.22157556
000080 b1 20 94 3e 11 25 d1 bd c8 a2 03 3e 18 f5 50 bd
       0.28931192 -0.10212148 0.12855065 -0.05101499
000090 6e f3 3f be f6 22 6e be 5b 78 13 3e 4a 8e 8c bd
       -0.18745205 -0.23255524 0.1440138 -0.06863077
0000a0 a5 a4 8e 3d a0 ca 1f bc cc b5 51 bd 19 ad 79 bd
       0.06964997 -0.009752899 -0.051198766 -0.060956094
0000b0 f0 d6 6d bd 00 34 d9 bc 96 75 47 bc 76 88 e5 bd
       -0.05806631 -0.026514053 -0.012174031 -0.112076685
0000c0 c1 20 07 be b5 ed 3a 3e 4d 83 fc 3d 1a 0b a6 3d
       -0.13196088 0.1825474 0.12329731 0.08107586
0000d0 98 20 2c bc 74 d2 2f bd dd aa 24 3e f7 07 43 3d
       -0.010505818 -0.042925313 0.16080804 0.047615018
0000e0 28 03 e8 bd e4 d3 61 3d 94 01 f3 3d c2 f0 90 3d
       -0.11328727 0.055133715 0.118655354 0.07077171
0000f0 98 e8 bd 3d 44 91 98 3d ce 65 2d 3e 28 89 d4 3c
       0.09272879 0.07449582 0.16933367 0.025944307
000100 db 57 cb bd 31 95 28 bd 42 8d 6b 3d 96 12 03 3d
       -0.099288665 -0.041157905 0.05750776 0.032000147
000110 d7 14 d1 bd f4 0e 03 be ec f0 ae bd c0 f6 17 be
       -0.10209053 -0.12798673 -0.08542046 -0.14840221
000120 22 8a c5 bd 88 3b fd bc d6 7f 7d 3d fd 3b b9 bb
       -0.09645487 -0.030912176 0.061889492 -0.005652903
000130 2a 2e f3 bd b4 39 fe bd 89 dd 0f 3d a6 8c 0a be
       -0.118740395 -0.1241335 0.03512338 -0.13530216
000140 40 2a 7c bc a0 c6 08 3d 03 95 a9 bd 28 7d 15 3d
       -0.015390933 0.03339255 -0.08280375 0.03649631
000150 a6 c8 3e bd 22 c4 50 bc 6e 2b c7 bd 1b c0 0f be
       -0.046578072 -0.012742074 -0.097250804 -0.14038126
000160 95 4b 0b be d5 77 66 bd 90 eb f3 3d 55 4c 67 bd
       -0.13603051 -0.056266624 0.11910164 -0.05646928
000170 b3 de e0 bd 09 c5 4b 3c 10 c3 b0 3b bc 58 74 3d
       -0.109799765 0.012437114 0.005394347 0.059654936
000180 4b 51 a6 3d 91 e1 ae 3d da 7c 10 be 60 a2 35 3c
       0.08120974 0.08539117 -0.14110127 0.0110860765
000190 0d bd 2e 3d 90 49 3d bc d7 31 9d bd 14 0e f4 3d
       0.04266076 -0.011553183 -0.07675522 0.11916748
0001a0 e0 99 7f bd 90 c0 91 bd 0b d7 f5 bd c0 c8 a2 bc
       -0.062402606 -0.071168065 -0.12003907 -0.019871116
0001b0 8a e9 6b 3d f0 ac e2 3c f3 93 0a bb ae 25 c2 bd
       0.057595767 0.027670354 -0.0021145314 -0.09479843
0001c0 3a 21 1e be f9 55 b9 3c f7 25 c7 3d a1 88 e8 3d
       -0.15442362 0.022624003 0.09724038 0.11354185
0001d0 f7 8d c6 bd e4 ac 40 bd c5 72 e4 bd f4 33 b8 bd
       -0.096950464 -0.04703988 -0.11154703 -0.08994284
0001e0 d8 71 b9 3c 8e 2a 79 3d 02 10 d4 3d 4b e6 40 bd
       0.022637293 0.0608316 0.10354616 -0.047094624
0001f0 81 d8 70 3d ee 83 0b be d4 fa 0b 3d 88 a3 d8 3d
       0.058800224 -0.13624546 0.034174755 0.10578066
000200 5b 17 b4 3d 94 02 7d 3e 42 99 ab bd 15 1d 84 bd
       0.08793517 0.24708015 -0.08378841 -0.064508595
000210 d3 f8 27 3e 54 8a dc ba d7 cd 85 be ef 66 11 bb
       0.16403513 -0.0016825893 -0.26133606 -0.0022186597
000220 5e 76 b0 3d 3c 23 7b 3d 2e f0 10 3e 86 11 33 3b
       0.08616327 0.0613129 0.14154121 0.0027323677
000230 bf 1b 4d bd db 29 ab bd 8c 75 c2 3d df c8 8b bd
       -0.05007529 -0.08357593 0.094950765 -0.068254225
000240 c6 81 87 be 71 88 a1 3d 0a 18 9e 3d c0 05 31 3d
       -0.26466197 0.07887352 0.07719429 0.043218374
000250 5c 8d ba 3d be 86 e1 bd bc fd 8d ba 0b ec 57 bd
       0.091089934 -0.11012028 -0.0010833065 -0.052715342
000260 43 b9 95 3d ff 05 17 bd c3 00 08 3d 82 45 fd bd
       0.073107265 -0.036870953 0.03320385 -0.12366773
000270 88 ca 55 3e f7 68 59 bb 77 97 1b 3e 96 3a ba 3d
       0.20878041 -0.0033174136 0.15194498 0.09093206
000280 6a df 2f 3e 8c a0 0f be a7 4a 47 3d 26 59 a7 bd
       0.1717507 -0.14026088 0.04865518 -0.081713006
000290 d7 37 7a bc 65 be 23 be 16 8c 08 be 44 d9 97 3d
       -0.015272102 -0.15990598 -0.13334689 0.07414487
0002a0 00 57 93 3e e0 1d a6 3c 8e 6c 5d bc 7c 90 b0 bd
       0.28777313 0.020277917 -0.013514651 -0.08621308
0002b0 66 0e a6 bd 0c 59 02 3d 8d fa 08 3e f8 7e f1 bd
       -0.08108215 0.031823203 0.13376828 -0.117917955
0002c0 64 70 58 bc f1 c7 24 3e 7e 5e e2 3d 61 74 d0 3d
       -0.01321039 0.16091897 0.11053179 0.101784475
0002d0 8e 49 f7 3c d2 23 01 3a 5e cd 30 3c d3 10 7d 3d
       0.03018644 0.0004926297 0.010791151 0.061783623
0002e0 ea 7a 1c bd 3b 30 09 3e 00 f8 54 bb c0 29 15 3e
       -0.038203157 0.13397305 -0.0032496452 0.14566708
0002f0 50 82 39 3e c5 e7 58 bd 23 98 09 3e aa 63 cd 3d
       0.18116117 -0.052955408 0.13436942 0.10028775
000300 e3 63 bd 3d ea ae ce bd 30 51 1e bc c6 72 fc bd
       0.092475675 -0.10091956 -0.009662911 -0.12326579
000310 bd c6 dc bd 28 c7 c5 3c b0 35 08 3d 66 39 ac 3c
       -0.10780094 0.024142817 0.033254325 0.021023463
000320 2c 59 0b bd 0e 2e ec 3d f8 18 4b 3c a9 46 a2 bd
       -0.034020588 0.11532222 0.01239609 -0.079236336
000330 d7 a7 4d bc a0 e8 f5 3c 9c de 1c 3d 40 03 b5 bd
       -0.012552223 0.03001815 0.038298234 -0.088385105
000340 4c 77 29 3d 24 c9 82 bd 77 ef df bd 91 ae 96 bd
       0.041373536 -0.06386021 -0.10934346 -0.07357515
000350 88 e3 f6 3d f6 d7 da 3d 7b 07 da 3d 5e 46 96 3d
       0.12055117 0.106857225 0.10645958 0.0733764
000360 21 2e b6 3d e8 0f 89 bc a2 12 98 bd fc d2 7f 3d
       0.08895517 -0.016731218 -0.07425429 0.06245707
000370 99 de 8f bd 02 c4 ac bd 4a ed 39 bd 84 09 aa 3c
       -0.07024879 -0.08435823 -0.045392312 0.02075649
000380 6d 25 71 3d 8c dd 46 bd 2a e1 a1 bd 68 21 8a 3c
       0.058873583 -0.048551127 -0.07904275 0.016861632
000390 18 e5 96 bd f6 ab a6 bd c4 70 85 3d 28 04 ac bc
       -0.07367915 -0.08138268 0.06515649 -0.020998076
0003a0 8f b7 de 3d 48 08 f9 3d 5c 24 19 3d a9 de 19 3d
       0.10874855 0.12159783 0.03738819 0.03756586
0003b0 80 cf eb 3c 40 4b 00 3b 19 aa 6e bc 00 2f e1 3a
       0.028785467 0.0019576102 -0.014566922 0.0017180145
0003c0 9d d9 28 3d 79 ce e2 3d 90 1d 1b bd 34 6e 58 bd
       0.041223157 0.11074538 -0.03786999 -0.052839473
0003d0 ff 6a 12 bd 10 5c 77 bd cf 64 81 3c cf e0 b3 3d
       -0.03574657 -0.060390532 0.01579514 0.08783113
0003e0 31 00 bd 3d 49 a6 54 3d 02 66 bc bd 67 97 94 bd
       0.09228552 0.051916394 -0.09199144 -0.0725544
0003f0 9e eb 06 bd 78 bf bc bc b2 78 9d 3b 2e 00 eb bd
       -0.032939546 -0.023040518 0.004805648 -0.11474644

network.2.bias f4 [32]
000000 16 97 75 3d e6 c4 f2 bd b2 b4 10 bc 1c 54 db bd
       0.05995854 -0.11853962 -0.008832144 -0.10709402
000010 bc a7 2a bd e6 e0 cf 3d 15 bb fa 3d 2c 73 e6 3c
       -0.04166387 0.10150318 0.12242714 0.02813109
000020 63 e5 89 3d 23 a8 d8 3d 00 ea 3e 3a 17 bb ef bc
       0.06733205 0.105789445 0.00072827935 -0.029264016
000030 09 e9 11 bc 8b 55 6d bc 17 e3 78 3d 2a 4a 04 be
       -0.008905658 -0.014485727 0.060763445 -0.12918916
000040 90 b2 a3 3c 5c 39 3b bd 7d bd ea 3d 62 64 36 3e
       0.019982606 -0.045709 0.11461923 0.1781173
000050 fa a5 6f 3d 27 ff 5b bc 6b b4 b8 3c ad be 6b 3c
       0.058507897 -0.013427532 0.022546967 0.014388722
000060 94 95 1a 3d 51 1c 98 3c e8 b4 cd bc f8 97 f0 bc
       0.037740305 0.01856819 -0.025110677 -0.02936934
000070 8e 03 57 bd f0 96 38 3c 94 91 b6 3d 8c c4 9c bd
       -0.052493624 0.011266455 0.089144856 -0.07654676

network.4.weight f4 [16, 32]
000000 5a f1 dc 3c e0 f2 a7 bc f4 e4 f8 bc 6d d3 28 3c
       0.026970554 -0.020501554 -0.03038261 0.010304314
000010 0a 2d 17 3e fc 09 c2 3c 23 5a 09 be 4f b1 b1 bd
       0.14763275 0.023686402 -0.1341329 -0.08676397
000020 c3 27 83 3d 5e ca 04 3d a3 2a 61 3b 37 85 3f bd
       0.06404068 0.032419555 0.003435769 -0.046757903
000030 58 3b bb bd a3 84 ab bd c4 b7 ef bd 05 ef 0b 3c
       -0.09142178 -0.08374908 -0.117049724 0.008540873
000040 34 51 dd 3c 5a 9d 0a 3e 2b 94 23 bd af 59 33 bc
       0.02701626 0.13536587 -0.039936226 -0.010946675
000050 eb da d0 3d b8 d0 78 3d 86 5d aa 3a 70 08 29 3d
       0.10198005 0.060745925 0.0012997843 0.041267812
000060 11 c6 4f 3b 30 d8 30 be d1 4f df 3b 9f 44 1e bd
       0.003170375 -0.17269969 0.006814935 -0.03863966
000070 af 07 0f 3e 9a a6 0d 3e 4a 36 d5 3c af cb 21 3e
       0.13967775 0.13833085 0.026026864 0.15800355
000080 fe 8b a9 bd 55 56 1d 3e 33 8e 1f 3e 52 66 dd bb
       -0.082786545 0.15364964 0.15581588 -0.0067565823
000090 0c 45 11 be 37 a8 69 bd e6 a1 81 bd e0 da 3f 3c
       -0.14186496 -0.057045188 -0.06329708 0.011709899
0000a0 79 c1 11 be 3c b6 80 bc a1 91 96 bd 4b 77 28 bd
       -0.1423396 -0.015711896 -0.07351995 -0.04112939
0000b0 4d 32 a5 bd 7c ab 63 bd 06 57 1a be 0f 5e 9a bd
       -0.08066235 -0.055583462 -0.1507226 -0.075374715
0000c0 98 c1 10 3d 38 3c ed 3d 3c 80 24 3e aa 44 03 be
       0.035340875 0.115837514 0.16064543 -0.12819162
0000d0 53 f9 af 3d ca 19 af bd 8e 6f 04 be 62 ab b9 3b
       0.08592477 -0.08549841 -0.1293318 0.0056661824
0000e0 53 ae f0 bd c2 ae 34 be 4e 2b 29 be 7a 54 f2 bd
       -0.11752 -0.1764479 -0.16520426 -0.11832519
0000f0 a6 ba 06 3e fd 47 f1 3d dc 4f 8f bd ea 51 f2 bd
       0.13157138 0.11781309 -0.06997654 -0.1183203
000100 a0 b4 a5 bd 29 98 0a be cb 28 0f 3b c1 6f d9 3d
       -0.08091092 -0.13534607 0.0021844383 0.106170185
000110 37 90 18 3d 49 96 72 bd d5 a0 1d 3e 62 30 bc bd
       0.03724691 -0.059225354 0.15393384 -0.09188916
000120 d4 13 de bd 7f 94 52 3d e2 a0 c7 bd 00 61 b3 3d
       -0.10843626 0.05141115 -0.09747483 0.08758736
000130 88 03 45 3e 07 a6 b0 bd e1 e1 81 bd 67 aa eb 3d
       0.19239628 -0.08625417 -0.06341911 0.11507111
000140 45 d5 ea bd 5d 80 21 3e 9a f9 aa bd 25 70 0d 3e
       -0.11466459 0.15771623 -0.08348389 0.13812311
000150 65 2c 01 be 49 d0 e8 bd 63 4a 91 3d 2a f8 8c 3d
       -0.12614591 -0.11367852 0.07094266 0.06883271
000160 34 0a 87 3e 72 84 3a 3e 40 92 26 bc 6a 2f ba bc
       0.26374972 0.18214586 -0.010166705 -0.022727687
000170 c7 3a 9e 3d b1 35 db 3b 78 2f c5 3b 5e 49 1f be
       0.07726055 0.00668975 0.0060176216 -0.15555331
000180 cc 90 5e be 6d 17 f8 3d 8c 82 35 be d3 8c 0e 3e
       -0.21734923 0.12113843 -0.17725581 0.13920908
000190 98 c6 62 3c d1 5f 30 3d 53 6d 2a 3e 3d c1 1f be
       0.013841294 0.043060128 0.16643266 -0.15601058
0001a0 14 ca 5a bd 6c 90 03 3d 05 60 77 3d c3 25 73 be
       -0.053415373 0.032120153 0.060394306 -0.23744874
0001b0 7f b4 3a 3d 03 d2 37 be d7 05 05 bd 1a 04 bb 3d
       0.04558229 -0.17951207 -0.032476272 0.09131642
0001c0 07 96 6c bd 96 3f b7 bb 1a 66 58 bc e7 dd a2 3d
       -0.057760265 -0.005592297 -0.013207937 0.07952481
0001d0 c5 58 b5 3d 7f 6e 77 3c 9f 1b 3c be f7 dc dd bd
       0.08854822 0.015102028 -0.18369912 -0.10833161
0001e0 7c 29 7f bc 05 bc 03 3e bf 9f d1 3d d7 24 0d be
       -0.0155738555 0.12864693 0.10235547 -0.13783585
0001f0 09 6b 86 3d 9e 65 23 bd d3 3a f8 3d 68 39 1d 3e
       0.06563384 -0.03989183 0.12120595 0.1535393
000200 e5 d8 0e bc a4 a6 96 bd 3e cb 0d 3e 66 aa bc bd
       -0.008718704 -0.07356003 0.13847062 -0.092121884
000210 b8 8f ec 3d e0 93 2d be f4 fc a5 bd 0e c0 3a be
       0.1155085 -0.16950941 -0.081048876 -0.18237326
000220 e0 7b d9 bd 9b aa 46 3d 97 b4 01 be f7 48 39 be
       -0.106193304 0.048502546 -0.12666546 -0.1809424
000230 2e e9 cb 3d 57 83 87 3d 2c d5 f5 bc d1 9f 1c be
       0.09956585 0.06616848 -0.030008875 -0.1529534
000240 9a d8 99 bd 31 71 6a bd 74 97 df 3d f7 a3 af bd
       -0.075120166 -0.057236854 0.10917559 -0.08576196
000250 aa 8b 50 bd 35 51 00 be a2 f1 e3 bd 7f 06 c4 3d
       -0.050914444 -0.12530978 -0.11130072 0.095715515
000260 63 f8 af 3d 90 d9 a8 ba 13 d6 87 bd 0d de 2d 3e
       0.08592298 -0.0012882221 -0.06632628 0.16979237
000270 e4 5d e7 3b e2 5e cc bd 92 f6 7a bd a6 ab ca bc
       0.007060753 -0.09979035 -0.061270304 -0.024740051
000280 6c 0f 8f 3d 09 6c 84 3d 3a c2 d6 3d b4 7f 02 bc
       0.06985363 0.064659186 0.104862645 -0.007965017
000290 0c 07 10 3e 36 0e 93 bd 3a 95 c9 bd 8b bf b3 bd
       0.14065188 -0.07180445 -0.09842916 -0.08776768
0002a0 44 fa 3a be 3a 7f 05 be c2 cc 23 be 8a 67 05 bd
       -0.18259531 -0.13036814 -0.15996078 -0.032569446
0002b0 a7 ea 8d bc e7 20 88 bd bc b8 12 be bd b1 12 3e
       -0.017323805 -0.066469006 -0.14328283 0.14325614
0002c0 82 33 9f bd d3 87 ac 3d 9e 20 fc 3d a3 4e 0e be
       -0.07773496 0.08424344 0.12310909 -0.13897185
0002d0 3a 95 0b bd 1d 1d b1 3d 99 26 1b 3e 3a e4 10 bd
       -0.03407786 0.08648131 0.15151443 -0.035373904
0002e0 de 0a fa 3d eb 28 16 be 14 3b eb bd ca db 14 3e
       0.12209104 -0.14664046 -0.11485878 0.14536968
0002f0 3f 26 02 bd 2b d0 1f 3e 31 21 84 3b 07 24 96 bd
       -0.031774756 0.15606754 0.004032277 -0.073310904
000300 89 55 63 3e bb 33 fd 3d df d5 cd 3d ce 41 d0 bd
       0.22200598 0.123633824 0.10050558 -0.10168801
000310 e3 96 f1 bc b5 e2 9b bd 0c f2 26 3e 80 db 1b 3d
       -0.029490894 -0.076116 0.16303271 0.03805113
000320 54 d9 95 3d 6e b5 fb 3d 2e d8 6f 3d 8e 57 90 bd
       0.07316843 0.12290464 0.058555774 -0.0704795
000330 bf a4 41 3e e3 66 f0 3d bb 09 49 bd 89 2d 12 3e
       0.18910502 0.11738374 -0.049081545 0.14275183
000340 e3 3c bb 3d a7 88 0e bd 78 b7 f4 bd 6c 7f c6 3c
       0.091424726 -0.03479829 -0.119490564 0.024230681
000350 d3 6e 24 be 95 cd f1 3d fa c3 3e 3e 4e 64 1a bd
       -0.16057901 0.1180679 0.18629447 -0.037693314
000360 fc 99 96 3e 6e 34 f7 bc 85 fe f7 3c 77 4d fc bd
       0.29414356 -0.030176368 0.030272732 -0.12319463
000370 8f a1 1f 3d 44 d0 ce 3d 8d 48 af 3d 82 33 46 3c
       0.038972434 0.10098317 0.0855876 0.012097241
000380 19 03 dd bc 57 b6 bd 3d b6 0e 54 3e 09 a1 0a 3d
       -0.026979016 0.09263294 0.20708737 0.03384498
000390 95 f4 d2 bd 66 fc 3d 3d 7e c5 29 3d f1 c5 4a 3e
       -0.103005566 0.046383284 0.04144811 0.19802071
0003a0 2f 3f 8c 3d 60 96 04 3d 80 fd 45 3c 47 d2 0f 3e
       0.06847989 0.03236997 0.012084365 0.14045058
0003b0 ed 80 3f 3d fa 6c 2c 3e 4c 68 21 3e d1 e8 e9 bd
       0.046753813 0.16838446 0.15762442 -0.11421359
0003c0 8d bf 41 3d 84 a6 19 be 7c e8 03 be 60 e0 c0 3d
       0.047301818 -0.15004927 -0.12881655 0.09417796
0003d0 97 76 59 3d 8c e6 9a 3b 45 30 70 3e 06 22 a3 bd
       0.05309161 0.0047271904 0.23455913 -0.07965474
0003e0 56 43 81 3d 14 ae 11 3c 28 7c 8c 3a 03 53 75 bc
       0.063116714 0.008891601 0.0010718154 -0.014973405
0003f0 83 27 5d 3e 67 1a 22 bd 43 32 a4 bd 23 49 07 3d
       0.21597104 -0.03957596 -0.08017399 0.033028733

network.4.bias f4 [16]
000000 a7 7c ac 3b a8 6a 0f 3e 6d 3c 72 bd f7 44 0e 3d
       0.005263883 0.1400553 -0.059139658 0.03473374
000010 f7 bd dc bd 9e 72 18 bd c3 63 0a 3e 93 f4 26 3e
       -0.107784204 -0.037218682 0.13514619 0.16304235
000020 4a c9 fa 3d c8 3e 58 bd 71 85 03 be 0a 82 9e 3d
       0.12245424 -0.052794248 -0.12843873 0.07739647
000030 30 4f 43 3d e2 7a 80 bd 44 c8 1a 3e 45 f7 6b 3d
       0.04768294 -0.06273438 0.15115458 0.05760886

network.6.weight f4 [1, 16]
000000 88 13 24 be a6 fb 02 3e 95 49 f9 3d 0d a1 12 be
       -0.16023076 0.12791309 0.12172238 -0.14319248
000010 42 4c c6 3d d2 43 0e be 65 66 fc 3d f2 b1 8f 3e
       0.09682514 -0.13893059 0.12324218 0.2806545
000020 25 cb 46 3e 79 a9 0f 3e cb 72 0c bd 3f a2 aa 3d
       0.19413431 0.14029492 -0.034289163 0.08331727
000030 ce da 03 3e c1 d8 b8 3d b9 10 f2 bc f3 4f 10 3c
       0.12876436 0.090257175 -0.02954899 0.008808124
