house_model.pth (torch, 2821 bytes, 3 tensors)

fc1.weight f4 [16, 3]
1.214291 -0.029782385 -0.143677 1.8797393 -0.06068219 0.17793123 -0.01150733 -0.3289689
0.18646462 -0.7674139 -0.1628509 -0.35085002 0.4029264 -0.96034664 -0.49311796 -0.50499195
0.0072238087 -0.354629 -0.19311382 0.03917458 -0.3657023 0.17982346 -0.41854557 -0.11947372
-0.45574307 -0.26616445 -0.16302913 -0.3471448 0.05449212 -0.5702368 0.035035398 -0.7197139
-0.12918349 -0.2675542 -0.41246456 0.099304646 -0.5687552 -0.119909465 -0.5435671 -0.7193356
0.09395223 -0.6044266 0.6323385 -0.17887345 -0.05356548 0.040826533 0.009389438 -0.045796014
00000000: e36d 9b3f 30fa f3bc 1020 13be 4c9b f03f
00000010: e38d 78bd 9b33 363e 3e89 3cbc 9d6e a8be
00000020: 95f0 3e3e 3d75 44bf 63c2 26be 9da2 b3be
00000030: 5e4c ce3e 47d9 75bf f579 fcbe 2747 01bf
00000040: b3b5 ec3b ef91 b5be a1bf 45be 8675 203d
00000050: 553d bbbe a423 383e 9b4b d6be a3ae f4bd
00000060: 2857 e9be b546 88be 1cf1 26be f7bc b1be
00000070: 2133 5f3d 0afb 11bf 4781 0f3d 2c3f 38bf
00000080: ad48 04be ddfc 88be 8e2e d3be 3c60 cb3d
00000090: f199 11bf 1893 f5bd 3727 0bbf 6126 38bf
000000a0: 076a c03d b4bb 1abf f0e0 213f 9a2a 37be
000000b0: 7a67 5bbd b939 273d 28d6 193c 9a94 3bbd

fc1.bias f4 [16]
0.122514494 0.042714015 -0.84438276 -0.23549148 -0.7793494 0.39845476 0.07028507 0.041720007
0.18259346 -0.01004357 -0.064646766 -0.7767106 -0.38750553 -0.39922735 -0.2891277 -0.25974417
00000000: e1e8 fa3d e4f4 2e3d 7829 58bf ae24 71be
00000010: 7183 47bf 4302 cc3e 9ef1 8f3d 99e2 2a3d
00000020: c8f9 3a3e c98d 24bc 8665 84bd 82d6 46bf
00000030: 2067 c6be 8767 ccbe 8c08 94be 30fd 84be

fc2.weight f4 [1, 16]
0.17800497 0.6736521 0.0424782 0.24762164 -0.2175524 0.05306262 0.11418675 -0.0126771955
0.24056268 -0.20631906 -0.05860218 -0.0006539232 -0.21654224 -0.12350111 0.017183095 -0.0059122904
00000000: ef46 363e 7774 2c3f 9ffd 2d3d 8790 7d3e
00000010: 0ec6 5ebe 3158 593d beda e93d 03b4 4fbc
00000020: 1056 763e 4e45 53be d708 70bd 0b6c 2bba
00000030: 40bd 5dbe 26ee fcbd 90c3 8c3c e3bb c1bb
