house_model.pth (torch, 15237 bytes, 7 tensors)

network.0.weight f4 [64, 3]
000000 31 8c 18 3f e7 ed a9 3e eb 2a 51 be e7 ce 3a 3f
       0.59588915 0.33189318 -0.20426528 0.7297196
000010 64 d7 ea bd b5 ef 39 3d 5e f3 0e bf 19 fd fa 3d
       -0.11466864 0.045394618 -0.558401 0.12255306
000020 ae 43 9f 3e a2 ab fc be d0 07 b6 3e 84 9e 15 3e
       0.31106323 -0.49349695 0.35552835 0.1461125
000030 33 6b 03 3f b2 32 54 bd 2e e1 11 3e 8e 2a 9d be
       0.5133545 -0.05180616 0.14246055 -0.3069653
000040 e6 69 c0 3d f1 1f ea bd d2 b1 de be a8 4f 15 3e
       0.093951985 -0.114318736 -0.4349504 0.14581168
000050 4d dc d7 be a2 3f c5 bd 35 f0 9c be c3 5a 97 3c
       -0.42160264 -0.096312776 -0.30652013 0.018475896
000060 28 57 e9 be b5 46 88 be 1c f1 26 be f7 bc b1 be
       -0.45574307 -0.26616445 -0.16302913 -0.3471448
000070 21 33 5f 3d 0a fb 11 bf 98 01 3a 3f 31 15 00 bf
       0.05449212 -0.5702368 0.7265868 -0.50032336
000080 18 39 cf 3e 55 41 29 3e fa 4e 8d be 5a 87 20 3e
       0.40473247 0.16528828 -0.27599317 0.15676633
000090 cb ec 1f 3e 1d 0e 88 3e 6c b0 9c bd bd 41 63 be
       0.15617673 0.26573268 -0.07650837 -0.22193046
0000a0 68 62 8f 3e bb b8 93 bc fc 0a c0 3e 8d d9 d0 3e
       0.28004766 -0.018032422 0.3750838 0.40790978
0000b0 0c 91 7b 3e df 65 c3 be 01 fc fc 3d da 78 1b 3d
       0.2456705 -0.3816366 0.123527534 0.03795705
0000c0 cb d5 dd 3e d9 cf 29 bf 71 b1 05 bf 72 c4 20 bf
       0.43327174 -0.66332775 -0.5222388 -0.6279975
0000d0 e6 0a 2c bf a1 d8 fc 3d 77 c4 92 3e 7d 0d 11 3e
       -0.6720413 0.12346006 0.28665516 0.14165302
0000e0 87 3f db 3d 70 ce 19 3d cb fd 3a 3e 0c 2e ba be
       0.10705476 0.03755039 0.18260877 -0.36363256
0000f0 a4 bc 08 bd b4 1d 21 bf 95 aa f2 3d 14 a3 27 bf
       -0.033383027 -0.6293595 0.11848942 -0.6548321
000100 ea d6 0b 3e 5d a0 3c ba 25 ea ed 3e 16 72 10 bf
       0.13656202 -0.0007195527 0.464677 -0.5642408
000110 a8 44 7f be fa 45 07 bf dc 27 3e 3d f1 64 09 be
       -0.24928534 -0.5284115 0.04642473 -0.13417412
000120 49 e2 09 3f 91 58 05 bf 05 2a 18 bf e9 da e7 be
       0.5386091 -0.52088267 -0.59439117 -0.45284203
000130 90 83 e3 be 20 46 8e 3e 0f 6f a2 3e 98 4c c5 3e
       -0.44436312 0.27787876 0.31725356 0.38535
000140 97 45 93 be a2 0d f9 be 8e cc 96 3e 51 e9 41 be
       -0.2876403 -0.48643214 0.29452938 -0.1893666
000150 47 16 07 3f 3e 5f 0d be d6 02 92 3e 56 f2 f2 be
       0.5276837 -0.13805863 0.2851779 -0.47450513
000160 24 4c 8f be 66 21 85 3e 2e 45 9d 3e 79 8f 19 be
       -0.27987778 0.26002043 0.30716842 -0.14996137
000170 5d a8 94 3e be d3 0e 3f 5a fd 99 be a4 5b 03 be
       0.290347 0.5579184 -0.30076104 -0.12827927
000180 ad 02 53 3f 0f b8 02 3b 8a 45 d5 bb a1 a9 46 bf
       0.8242596 0.0019946133 -0.006508534 -0.77602583
000190 b9 54 88 be aa f6 46 3e 02 ed 13 3e b5 d1 67 be
       -0.26627138 0.19430032 0.1444588 -0.2263859
0001a0 08 a7 c7 3d d2 eb c9 be f4 c9 fa be 18 c7 a2 be
       0.097486556 -0.3943773 -0.48982203 -0.3179252
0001b0 69 57 e5 be a6 07 8b be c4 64 23 3f e2 2a c5 3d
       -0.4479325 -0.27154273 0.6382563 0.0962732
0001c0 5c f2 f2 3d 0c b6 2a bf 0e 82 bc be 01 65 ff bd
       0.11862633 -0.6668403 -0.36817974 -0.12470437
0001d0 70 8a 1b 3e c8 0d 02 bf 2a bc 7e be eb f7 b0 be
       0.15189528 -0.5080228 -0.24876466 -0.34564146
0001e0 62 f1 8e 3e 33 e2 84 bd 53 96 2e 3c 42 4f c8 be
       0.27918535 -0.064884566 0.010655957 -0.3912297
0001f0 94 e6 ca be 9d 74 ac be a7 34 b1 be 68 83 67 bf
       -0.39629042 -0.3368272 -0.34610483 -0.90434885
000200 ea 3d 24 3e b7 26 b6 be 16 67 a5 3d ff 2c 06 be
       0.16039243 -0.35576412 0.08076303 -0.13103102
000210 09 92 dc be 01 3e de 3e 20 b7 16 bd fb 9f 62 be
       -0.43080166 0.4340668 -0.036795735 -0.2213134
000220 21 5f f5 be 48 f0 12 bf 7f 41 b5 3e 5e fe ea bd
       -0.4792414 -0.5739789 0.35401532 -0.11474298
000230 26 06 51 3e 8f 93 26 bf a6 e4 ed 3e 87 b5 05 bf
       0.20412502 -0.65068907 0.46463507 -0.52230114
000240 89 53 8b be b6 11 70 be a4 5c 9a 3d c3 b9 2e 3f
       -0.2721217 -0.23444256 0.07537201 0.682522
000250 16 89 04 3f cd d0 c9 be c1 0f d7 3e bc fa 18 bd
       0.51771677 -0.39417115 0.42004207 -0.037348494
000260 15 62 c1 3c f6 9c 35 bf fe 0c e2 3e 20 6c 88 be
       0.02360634 -0.7094263 0.44150537 -0.26644993
000270 1d 02 d5 3e cb e6 84 3d 02 84 9c 3d 69 34 eb be
       0.41603175 0.06489333 0.07642366 -0.45938423
000280 65 d0 50 3e 39 0b 3d 3b b5 b9 8e 3e 7e b5 d6 be
       0.20391996 0.00288458 0.27876058 -0.41935343
000290 df b0 51 3e 3d 70 28 3e e4 72 97 be e2 87 c5 3e
       0.20477627 0.16449066 -0.29579842 0.38580233
0002a0 af db d4 3d 82 fc a6 be 83 95 a2 be a5 99 06 3e
       0.10393464 -0.32614523 -0.31754693 0.13144548
0002b0 04 90 5f 3e 2a 6d 27 be f1 a9 a8 be 5b 74 4a be
       0.21832281 -0.16350237 -0.32942155 -0.19770949
0002c0 7b d6 dc be 2f 50 02 3f 82 48 9d 3e 14 74 fb be
       -0.43132386 0.509036 0.30719382 -0.49111998
0002d0 1f 89 9d 3e e3 8a 74 3e 2c f1 9f 3d bc ca 51 be
       0.30768678 0.23881106 0.07809672 -0.20487493
0002e0 a1 a7 1d 3d 22 9c 0c 3d 62 9f ed 3e 39 c8 12 ba
       0.03848994 0.034328587 0.46410662 -0.00055992935
0002f0 c0 ec a9 bc c8 fd 7c 3d cf e0 d0 bd 22 2e 30 be
       -0.020742774 0.061765462 -0.10199129 -0.17205098

network.0.bias f4 [64]
000000 c8 b0 ab 3e 98 cc 0f 3f c0 03 91 be ef cc 9a bd
       0.3353331 0.5617156 -0.28323174 -0.07558619
000010 d5 d7 a7 bd 22 70 8e be 01 20 a0 3e 3f 27 cf 3d
       -0.081954636 -0.27819926 0.31274417 0.101149075
000020 eb 3d 06 bf 76 2d 5a be fa c0 11 3f 01 5a a2 3e
       -0.5243823 -0.21306404 0.56935084 0.31709293
000030 b0 9b 17 be 0e f6 67 be 63 3f cc be ae 22 1c bf
       -0.14805484 -0.22652456 -0.3989211 -0.60990417
000040 1e 90 1c be dc f8 d4 bc 9d fd a6 3e a0 77 5f 3e
       -0.15289351 -0.025997572 0.32615367 0.21822977
000050 cf 99 21 bf 7a 5d b8 be 1d bc a0 3d 78 d8 85 3e
       -0.6312532 -0.36008817 0.0784838 0.26141715
000060 24 55 a8 3e 29 e0 cd bd fc be 6c 3e 06 8d 3c 3b
       0.32877457 -0.10052521 0.2311973 0.002877058
000070 f5 55 aa be e2 70 c0 3e b6 db 5e be 96 8f cd bc
       -0.33268705 0.37586123 -0.217635 -0.025092881
000080 60 18 ba be 4e 64 81 3e ab 27 37 3f d6 76 57 3e
       -0.36346722 0.2527184 0.71544904 0.21041426
000090 1c f4 c5 be 14 0e 1e bf 86 0b ba be 75 6e dc 3e
       -0.38662803 -0.6174023 -0.36336917 0.43053022
0000a0 f1 aa dd 3e 64 c0 f8 3e 2e ba 50 3d 18 2c 2f be
       0.4329448 0.48584282 0.050958805 -0.17106664
0000b0 c5 54 90 3c e1 ce e0 be 26 d9 d9 be ea e2 b0 be
       0.017618546 -0.43907836 -0.42548484 -0.34548122
0000c0 f4 68 45 3d e8 c9 3e be 81 67 8f 3d 4c 1f 05 be
       0.048195794 -0.18631709 0.07002164 -0.1300022
0000d0 5b 21 39 be 77 14 0a bf 6a a0 b3 be a6 21 ab 3e
       -0.1807913 -0.53937477 -0.35083324 0.3342411
0000e0 c8 a3 49 be 3c cc b6 3e 0e aa 3d be a9 56 94 be
       -0.19691384 0.35702693 -0.18521902 -0.28972366
0000f0 53 cf c1 bd ac bd 15 bf 77 a9 d9 bc e0 b4 0c bf
       -0.09463372 -0.5849254 -0.026570065 -0.54963493

network.2.weight f4 [32, 64]
000000 b9 93 79 3d d3 f0 d1 ba 02 f2 bb bd dd 6d e2 bd
       0.060931895 -0.0016017206 -0.09177019 -0.11056111
000010 8f 01 cd 3d 06 d3 f7 bd 5e de ac 3c 50 86 bf bd
       0.10010063 -0.121007964 0.021102127 -0.0935179
000020 c8 fc 3d 3d d2 69 f0 3d 40 07 43 3d c1 fc b8 3b
       0.04638365 0.117389336 0.047614336 0.005645365
000030 3e 79 fe bd ae dc 9e be 22 43 07 bc 70 67 64 be
       -0.12425469 -0.3102774 -0.008255752 -0.22305083
000040 ae b6 dd be 74 d2 dd 3d 0c 2b 79 3d b1 65 af bd
       -0.43303436 0.108311564 0.06083207 -0.08564318
000050 a3 5c a7 3d 3d d1 82 3d a2 55 0f 3e 01 c0 4d be
       0.08171966 0.06387565 0.1399751 -0.20092775
000060 94 37 bd 3d 52 21 8d 3c bc 19 5a bd cb 4c 0c be
       0.09239116 0.017227802 -0.0532472 -0.13701169
000070 70 d1 f6 bc 7a b7 19 bd c9 0a 1b be 85 12 0d 3e
       -0.030129164 -0.037528493 -0.15140833 0.13776596
000080 85 85 85 3e 9e d6 6f bd d1 59 e1 3d 18 f5 50 bd
       0.2607843 -0.058554284 0.11003459 -0.05101499
000090 65 66 6f be 9b 4d 30 be 10 ad a4 3e 4a 8e 8c bd
       -0.23378904 -0.17217104 0.32163286 -0.06863077
0000a0 6b 1e 6b bc a0 ca 1f bc 8a 2b b6 3e fc de a9 bd
       -0.014350514 -0.009752899 0.35580093 -0.08294484
0000b0 dc a4 42 be 00 34 d9 bc 6e 23 4c bd 80 68 42 be
       -0.19008201 -0.026514053 -0.049838476 -0.18985176
0000c0 a2 ec 94 bd c5 e3 f5 3d b2 c8 83 3d 67 c9 28 bd
       -0.072716966 0.12006334 0.06434764 -0.041207697
0000d0 0f a5 8d bd 75 6a 0e be a4 bd 33 3e 6d d3 7a 3c
       -0.06916248 -0.13907798 0.17552811 0.015309197
0000e0 da 69 eb bd 72 ea 5b bd 94 01 f3 3d 51 8a b2 3c
       -0.11494799 -0.05369038 0.118655354 0.02179447
0000f0 ed 17 6d 3c db 54 15 bd 17 0a ea 3d 28 89 d4 3c
       0.014471036 -0.036457878 0.11427706 0.025944307
000100 62 b3 e7 bd 48 2f 72 bd 68 b8 81 3d 65 a5 1b 3d
       -0.113135114 -0.059127122 0.06334001 0.03799953
000110 a5 c5 e2 bd 69 73 01 be ec f0 ae bd 15 66 d6 bd
       -0.11072854 -0.12641682 -0.08542046 -0.10468689
000120 22 8a c5 bd 88 3b fd bc de ef 92 3d f9 8e 1d 3d
       -0.09645487 -0.030912176 0.07174657 0.038466427
000130 ee 9d f9 bd 9b c5 05 be 89 58 0b 3d 9d 95 f4 bd
       -0.12188326 -0.13063662 0.03401998 -0.11942599
000140 40 2a 7c bc d2 34 67 3d 6b b2 b1 bd d4 45 29 bd
       -0.015390933 0.056446858 -0.08676609 -0.04132636
000150 73 9a 2e bd e8 42 f2 bc fb d4 c2 bd df d9 0c be
       -0.042627763 -0.029572919 -0.09513279 -0.13754986
000160 10 f9 07 be 85 1d ca bd 7b 93 c1 3d 00 b0 bc bd
       -0.13278604 -0.09868912 0.09451958 -0.09213257
000170 e0 9f f2 bd 3f 26 bf ba 13 9f a7 ba 29 78 9a 3d
       -0.118469 -0.0014583542 -0.0012788497 0.0754245
000180 47 28 85 3d 4e 8f 8e 3d e2 2b d4 bd 60 a2 35 3c
       0.06501823 0.06960927 -0.103599325 0.0110860765
000190 d9 ac b3 3d 90 49 3d bc d9 e1 d7 bd 14 0e f4 3d
       0.087732024 -0.011553183 -0.10541124 0.11916748
0001a0 a4 e7 a6 bd 90 c0 91 bd 46 ea 13 be bb 3e a6 bc
       -0.08149651 -0.071168065 -0.14444837 -0.020293584
0001b0 b1 0d cc 3c f0 ac e2 3c be ef 30 bc ae 25 c2 bd
       0.024908872 0.027670354 -0.0107993465 -0.09479843
0001c0 a2 cc f2 bd 53 a4 c4 bc dd ec a7 3d 1e b1 93 3d
       -0.11855437 -0.024004137 0.08199475 0.07211517
0001d0 d0 ff d0 bd ca 10 2d bd d2 a4 b6 bd 40 48 42 bd
       -0.10205042 -0.04225234 -0.08918156 -0.047432184
0001e0 d8 71 b9 3c 87 10 2c 3d 02 10 d4 3d f8 ff 12 be
       0.022637293 0.04200795 0.10354616 -0.14355457
0001f0 a8 27 64 3d 70 41 f2 bd 5e d7 8a 3c 88 a3 d8 3d
       0.05570188 -0.118288875 0.016948398 0.10578066
000200 4b 9d 0a 3e 33 d9 9e 3e 42 1b ae bd b5 fa f7 bc
       0.13536565 0.31025085 -0.08501293 -0.030270914
000210 65 7e 59 3e 27 0e 2e 3c f1 56 a1 be 5b 0c 95 bc
       0.21239622 0.010623491 -0.31511644 -0.018194368
000220 5e 76 b0 3d 3c 23 7b 3d 39 ab 4b 3e 26 cc ef 3b
       0.08616327 0.0613129 0.19889535 0.0073180376
000230 9c 85 10 bd e9 54 08 bb 2d 97 0a 3e 10 83 a8 bb
       -0.03528367 -0.0020802564 0.13534231 -0.005142577
000240 f1 55 07 bf 9f e7 0a be 92 06 dc 3d af 9c ab 3c
       -0.5286551 -0.13564919 0.10743441 0.020948736
000250 f1 60 76 3d c7 26 86 be 33 47 67 3c 9f d3 c5 bd
       0.060151044 -0.2620146 0.014116096 -0.09659504
000260 04 d2 e7 3d ae 95 bf bd 87 e3 46 3d 51 23 b1 bd
       0.11319354 -0.09354721 0.04855683 -0.08649314
000270 7a 22 85 3e 73 bd 1e bd ab 5d 3a 3e b6 7d ae 3d
       0.26002866 -0.03875489 0.18199794 0.08520071
000280 6f 65 7b 3e c4 be 35 be 3a 96 9f 3d 26 59 a7 bd
       0.24550413 -0.17748553 0.07792325 -0.081713006
000290 f2 cf b6 3b 75 03 96 bd 34 de 9e bd 44 d9 97 3d
       0.005578988 -0.07324878 -0.07757226 0.07414487
0002a0 9b ec 91 3e e0 1d a6 3c 21 a0 f3 3d f9 03 24 be
       0.28500828 0.020277917 0.118957765 -0.1601714
0002b0 dc 6b 6c bd 0c 59 02 3d db 21 2b 3e e4 6c 43 be
       -0.05772005 0.031823203 0.16712134 -0.19084507
0002c0 10 e8 d4 bc d6 f4 4d 3e d6 70 13 3e 5f 4b 8a 3c
       -0.025989562 0.20112929 0.14398512 0.016881643
0002d0 1e f2 90 3d 75 bd 5d 3d ba 65 10 3d 4a 89 bc 3d
       0.0707743 0.05413576 0.035253264 0.09205873
0002e0 53 cc 26 bd 82 3e 02 3e 00 f8 54 bb 85 4a 2d 3e
       -0.040722203 0.12719157 -0.0032496452 0.16922958
0002f0 ee 41 59 3e 00 c9 88 bc 57 09 31 3e aa 63 cd 3d
       0.21216556 -0.016697407 0.17288719 0.10028775
000300 53 5f 8a 3e 48 6d 0d 3e 2c 13 17 be 6d 5d 82 be
       0.27025852 0.13811219 -0.14753407 -0.25461903
000310 ce fc 7b 3d b3 24 ab bb 64 74 98 be 4d cb 97 3c
       0.06152039 -0.0052228807 -0.297763 0.018529559
000320 2c 59 0b bd 0e 2e ec 3d c1 60 3b 3e 4c 82 b1 bc
       -0.034020588 0.11532222 0.18298627 -0.021668576
000330 e3 0c 02 3d 16 b5 70 bd b9 18 d5 3d 7e 42 1c be
       0.03175057 -0.058766447 0.10405106 -0.1525974
000340 7b 85 f4 be 01 e0 c4 be 3f 1f b5 bc ba 46 3e bd
       -0.47758088 -0.3845215 -0.022109626 -0.04645417
000350 2b 21 32 3e 81 b1 53 be 45 c1 87 3e fc d9 00 bd
       0.17395465 -0.20673181 0.2651464 -0.031457886
000360 40 28 8d 3e 52 56 14 be f5 d9 45 3d 8e d8 36 bd
       0.2756977 -0.14486054 0.048303563 -0.044640116
000370 8c 63 a4 3d d3 c3 b4 be 78 6e a5 3c 88 79 27 3e
       0.080267996 -0.35305652 0.020194277 0.16354954
000380 39 7f b0 3e 60 f0 80 be 51 4a 66 3d 68 21 8a 3c
       0.34472063 -0.25183392 0.056223217 0.016861632
000390 08 0d 6b be 67 be f9 bd f7 9f c1 3c 28 04 ac bc
       -0.2295419 -0.121945195 0.023635847 -0.020998076
0003a0 bd 75 86 3e 48 08 f9 3d 6f 1c 47 3e 87 b0 86 3b
       0.26261702 0.12159783 0.1944444 0.004110399
0003b0 bb d9 e9 bd 40 4b 00 3b dc ef ba 3d 8e 33 61 be
       -0.11418482 0.0019576102 0.09127781 -0.21992323
0003c0 37 f4 5a bd 01 f7 95 3e cb af 38 3e 25 d3 3b be
       -0.053455558 0.29290012 0.1803581 -0.18342264
0003d0 dd 8f c7 3d b0 06 13 be aa ca bd 3d cd db c0 3d
       0.097442366 -0.1435802 0.09267171 0.09416924
0003e0 79 51 bd 3d c6 80 b3 3d 02 66 bc bd c9 12 0e 3d
       0.09244055 0.08764796 -0.09199144 0.034685884
0003f0 34 07 34 3d 17 82 d2 bd 67 c1 7f 3e 2e 00 eb bd
       0.043952182 -0.10278719 0.24976121 -0.11474644

network.2.bias f4 [32]
000000 b8 9e 0f bc 6f c0 05 be 37 f9 ca 3c fd 52 a1 3c
       -0.008765869 -0.13061689 0.024777038 0.019692892
000010 79 f3 88 bd 65 5a cf 3d 39 c9 0f 3e 72 cb e3 bc
       -0.06687064 0.10124663 0.14041604 -0.027806971
000020 43 7a c1 bc 16 2c 0e 3c 00 ea 3e 3a 11 29 b9 bc
       -0.02361787 0.008677503 0.00072827935 -0.02260259
000030 c4 3a 0a bd 47 8f 1e bb 64 50 d7 3c 35 1e 30 be
       -0.03374745 -0.0024194287 0.02628345 -0.17199023
000040 34 18 7a bd 5c 39 3b bd 13 51 da 3d 04 29 2b 3e
       -0.06105824 -0.045709 0.10659995 0.16714865
000050 d0 ff 5a 3d 38 38 6e bc d7 67 f4 3c 70 b9 7a 3c
       0.053466618 -0.014539771 0.029834671 0.015303001
000060 de d3 91 3d 09 43 f9 bc e8 b4 cd bc f8 97 f0 bc
       0.071204886 -0.030427473 -0.025110677 -0.02936934
000070 2e 0a 22 bd 47 a3 1c bc bd d7 c2 3d 1f d2 dc bd
       -0.03956049 -0.009560413 0.09513805 -0.10782265

network.4.weight f4 [16, 32]
000000 eb 95 e8 3c e0 f2 a7 bc d9 9b f8 bc 6d d3 28 3c
       0.028391799 -0.020501554 -0.030347751 0.010304314
000010 38 ec 14 3e fc 09 c2 3c da ca 08 be ed 21 b2 bd
       0.14543235 0.023686402 -0.13358632 -0.08697877
000020 03 2f 84 3d 48 f9 07 3d a3 2a 61 3b ed 2d 3f bd
       0.06454279 0.033196718 0.003435769 -0.046674658
000030 ae 97 ba bd e4 67 ae bd d2 d1 ef bd 5f 6e 11 3c
       -0.09110962 -0.08515909 -0.11709942 0.008876412
000040 15 79 e0 3c 5a 9d 0a 3e 2b 94 23 bd 74 65 2d bc
       0.027401486 0.13536587 -0.039936226 -0.01058327
000050 68 62 d3 3d 2b cc 78 3d 8b 22 fb 3a 4c 6d 2c 3d
       0.10321504 0.060741585 0.0019160075 0.04209642
000060 23 d4 4f 3b ec 88 31 be d1 4f df 3b 9f 44 1e bd
       0.0031712137 -0.17337388 0.006814935 -0.03863966
000070 92 01 0f 3e 42 fc 0d 3e 37 60 e3 3c af cb 21 3e
       0.13965443 0.1386576 0.02775584 0.15800355
000080 f8 4d c1 bd 55 56 1d 3e 7c 1d eb 3d 67 e1 70 bc
       -0.094386995 0.15364964 0.11480233 -0.014702178
000090 0c 45 11 be 37 a8 69 bd 73 89 d1 bd cc 4a 82 3c
       -0.14186496 -0.057045188 -0.102312945 0.015904807
0000a0 93 6b 23 be 2d 76 2b 3d a1 91 96 bd 81 f5 00 bd
       -0.15959005 0.041860748 -0.07351995 -0.03148413
0000b0 f6 bd e3 bd 44 b4 90 bc 55 f6 1b be 42 37 a3 bd
       -0.111202165 -0.017664082 -0.15230687 -0.07969524
0000c0 07 23 f2 3c 38 3c ed 3d 3c 80 24 3e 3b ba 01 be
       0.029557718 0.115837514 0.16064543 -0.12668698
0000d0 03 95 ad 3d b8 67 b2 bd 73 90 01 be 48 01 75 3b
       0.08475687 -0.08711189 -0.12652759 0.0037384797
0000e0 59 bf 13 be 6a 51 54 be 4e 2b 29 be 7a 54 f2 bd
       -0.14428462 -0.20734182 -0.16520426 -0.11832519
0000f0 f1 23 0a 3e 2b 6c ea 3d dc 4f 8f bd ea 51 f2 bd
       0.13490273 0.11446413 -0.06997654 -0.1183203
000100 53 f4 f8 bd 41 f9 08 be 6d 86 26 3c e9 92 72 3e
       -0.12155976 -0.13376333 0.010163886 0.23688854
000110 b2 5c bc 3c 32 8a 71 bd 6c c0 1b 3e 22 d9 de bd
       0.02299342 -0.058969684 0.15210122 -0.108812585
000120 6b 00 17 be 0b fb 5f 3c e2 a0 c7 bd 03 cc 82 3d
       -0.14746253 0.013670693 -0.09747483 0.063865684
000130 d3 4d 1f 3e 9f 27 fd bd b9 e2 eb bd d5 2b bd 3d
       0.15557031 -0.12361073 -0.11517853 0.09236876
000140 80 20 1e be 5d 80 21 3e 5e 56 b4 bd 6f 5c f7 3d
       -0.15442085 0.15771623 -0.08805536 0.12078177
000150 5e 9f e6 bd f8 05 de bd dc 7d 4b 3d f7 0d 8c 3d
       -0.11260866 -0.10840982 0.049680576 0.06838601
000160 b3 62 6b 3e 89 a6 06 3e 40 92 26 bc 6a 2f ba bc
       0.2298687 0.13149466 -0.010166705 -0.022727687
000170 33 31 60 3d 10 e0 1a bc 78 2f c5 3b 7f 8f 00 be
       0.05473442 -0.009452835 0.0060176216 -0.1255474
000180 01 f6 8a be 6d 17 f8 3d 7e 59 c8 bd 15 c2 6e be
       -0.2714081 0.12113843 -0.09782694 -0.23316224
000190 06 ed 9e 3c d1 5f 30 3d 69 35 75 3e 5a e2 18 be
       0.019400131 0.043060128 0.23946156 -0.14930096
0001a0 84 46 d0 bd 2d 36 29 bc 05 60 77 3d 7e c7 8f be
       -0.101697 -0.010327858 0.060394306 -0.28081888
0001b0 f8 0a df 3c 24 9c 9d be ed e0 1b be fd cf c1 3d
       0.02722691 -0.30783188 -0.15222521 0.09463499
0001c0 f6 f4 62 bd 96 3f b7 bb 1a 66 58 bc 46 dd b1 3d
       -0.055409394 -0.005592297 -0.013207937 0.08684783
0001d0 65 8f b7 3d 2b 72 82 3c a3 2d 9d be df 50 dc bd
       0.08962897 0.01592358 -0.3069888 -0.107576124
0001e0 50 2a bf bd 34 1d 0e 3e bf 9f d1 3d d7 24 0d be
       -0.09334242 0.13878328 0.10235547 -0.13783585
0001f0 e0 28 d6 bc 1a 40 24 bd 78 c4 fb 3d 68 39 1d 3e
       -0.026142538 -0.040100195 0.12293333 0.1535393
000200 66 5b d8 3c a4 a6 96 bd 96 4c 0b 3e 4b 1c b9 bd
       0.02641077 -0.07356003 0.13603434 -0.090385996
000210 b8 8f ec 3d e0 93 2d be f2 fd ca bd ae 11 29 be
       0.1155085 -0.16950941 -0.099117175 -0.1651065
000220 df 2f b5 bd ca bf 89 3d 97 b4 01 be 9c 2e 31 be
       -0.08847021 0.06726034 -0.12666546 -0.17302936
000230 f5 65 d9 3d e8 8f 37 3d b0 6e 0a bc 46 a2 bc bd
       0.1061515 0.044814974 -0.0084492415 -0.09210639
000240 9a 4b 5d bd 31 71 6a bd 74 97 df 3d a2 bf 94 bd
       -0.054027177 -0.057236854 0.10917559 -0.072631136
000250 aa 8b 50 bd 35 51 00 be 64 ca d7 bd 7f 06 c4 3d
       -0.050914444 -0.12530978 -0.1053665 0.095715515
000260 fc 0d b8 3d f0 62 90 3c 13 d6 87 bd 0d de 2d 3e
       0.08987042 0.017625302 -0.06632628 0.16979237
000270 72 cc f4 3b 19 c9 61 bd 92 f6 7a bd a6 ab ca bc
       0.007470661 -0.055123422 -0.061270304 -0.024740051
000280 b7 bc cc 3c 09 6c 84 3d b1 7d ae 3d 78 5d 67 bd
       0.02499233 0.064659186 0.085200675 -0.056485623
000290 69 5e 10 3e 36 0e 93 bd 58 fc f8 bd 36 41 b5 bd
       0.14098515 -0.07180445 -0.12157506 -0.088503286
0002a0 6c 23 36 be c6 0b 07 be c2 cc 23 be 1c 4d 45 bd
       -0.1778695 -0.13188085 -0.15996078 -0.04816924
0002b0 d0 ca 2c bd 92 87 a2 bd 4a 45 28 be 61 c3 13 3e
       -0.042185605 -0.07936014 -0.16432682 0.1443
0002c0 5f c1 42 bd d3 87 ac 3d 9e 20 fc 3d cb 67 23 be
       -0.047547694 0.08424344 0.12310909 -0.15957563
0002d0 ef 05 06 bd 7c 37 b1 3d 72 45 09 3e 0d ea 0c bd
       -0.032720502 0.08653161 0.13405398 -0.034402896
0002e0 ba b9 d0 3d fa 1e 37 be 14 3b eb bd ca db 14 3e
       0.101916745 -0.1788291 -0.11485878 0.14536968
0002f0 f0 98 62 bd 85 bc 20 3e 86 ca d0 3b 07 24 96 bd
       -0.055321634 0.15696914 0.006371799 -0.073310904
000300 7d dc 3b 3e 93 37 00 3e 68 57 df 3d e8 8c cd 3c
       0.18345828 0.125212 0.10905343 0.025091603
000310 39 85 05 bd ae 5c 9b bd ef ea 28 3e 2c d4 b5 3c
       -0.032597754 -0.075860366 0.1649587 0.022195898
000320 5d 41 19 3d 05 2d b2 3d 2e d8 6f 3d db 91 ba bd
       0.03741585 0.08699993 0.058555774 -0.09109851
000330 b4 3a 20 3e c9 98 a3 3d 0d 64 c6 bd c8 3a 05 3e
       0.15647393 0.07988126 -0.09687052 0.13010705
000340 87 00 61 3d a7 88 0e bd 57 82 00 be ee 88 25 3c
       0.054932144 -0.03479829 -0.1254972 0.010103447
000350 52 ad 25 be ee 2e f2 3d 8a cd 2d 3e 0b b8 1d bd
       -0.16179398 0.118253574 0.16972938 -0.038505595
000360 0e 36 87 3e 24 a8 9f bd 85 fe f7 3c 77 4d fc bd
       0.26408428 -0.07795742 0.030272732 -0.12319463
000370 e4 1e a8 3c 64 58 bd 3d 3a 04 ab 3d a2 1b 22 3d
       0.020522542 0.09245375 0.083504155 0.039577134
000380 e8 cb 25 bd 21 38 c1 3d e7 ea 7a 3e 3d 65 49 3e
       -0.040477663 0.09434534 0.2450367 0.19667526
000390 b9 61 d9 bd 1b 09 3f 3d 10 8d 94 3d 24 d0 43 3e
       -0.10614342 0.046639543 0.07253468 0.19122368
0003a0 31 20 3f 3d 4d b7 93 3b 80 fd 45 3c f6 cc 17 3e
       0.04666156 0.004507935 0.012084365 0.1482428
0003b0 01 32 2a 3d a1 58 23 3e 55 47 0c 3e b9 19 01 be
       0.041551594 0.15951778 0.13699086 -0.12607469
0003c0 77 91 b5 3c 84 a6 19 be 0a f5 0e be 09 af de 3d
       0.02216409 -0.15004927 -0.13960662 0.10873229
0003d0 38 32 58 3d c4 92 b1 3b 1f cd 7c 3e 3c 1c a4 bd
       0.052782267 0.005419107 0.24687622 -0.08013198
0003e0 5b 16 82 3d 6e f9 36 bc 28 7c 8c 3a 03 53 75 bc
       0.0635192 -0.011167867 0.0010718154 -0.014973405
0003f0 bb d1 66 3e 6f 17 46 bd fc 12 b1 bd c8 8f 78 3d
       0.22540943 -0.04836219 -0.08646199 0.060683995

network.4.bias f4 [16]
000000 bf 48 b4 3b 5a 7c c3 3d bd ee de bb e3 97 e8 3d
       0.005501836 0.095452026 -0.006803362 0.11357095
000010 f9 c5 14 be 07 5a 7a bd 65 8f 46 3e 66 77 81 3e
       -0.14528646 -0.061121013 0.19390638 0.25286406
000020 66 58 51 3e 76 e6 ed 3b 0c d6 02 be b6 7d f0 3d
       0.20443878 0.007260139 -0.12776965 0.117427275
000030 21 bf da 3d da 73 61 bd ba 5e 0d 3e fb 0d 26 3a
       0.10680986 -0.055042125 0.13805667 0.0006334481

network.6.weight f4 [1, 16]
000000 b5 4e 24 be 02 c1 46 3d 27 9b ca 3d d9 0b 40 be
       -0.1604565 0.04852391 0.09892874 -0.1875452
000010 f5 e5 b4 38 f3 dd 97 bd 7d bf ce 3d ee 98 8c 3e
       8.625902e-05 -0.0741538 0.10095117 0.27460426
000020 b5 8f 44 3e c6 35 c7 3d a1 85 14 bd ec af 9a 3d
       0.19195445 0.09727053 -0.03626025 0.07553086
000030 5c 94 cc 3d 80 76 80 3c e5 78 f4 bc 80 57 c8 bc
       0.09989235 0.015681505 -0.029842803 -0.024455786
